----------------------------------------------------------------
        Layer (type)               Output Shape         Param #
================================================================
            Conv2d-1           [-1, 64, 31, 31]          23,296
              ReLU-2           [-1, 64, 31, 31]               0
         MaxPool2d-3           [-1, 64, 15, 15]               0
            Conv2d-4          [-1, 192, 15, 15]         307,392
              ReLU-5          [-1, 192, 15, 15]               0
         MaxPool2d-6            [-1, 192, 7, 7]               0
            Conv2d-7            [-1, 384, 7, 7]         663,936
              ReLU-8            [-1, 384, 7, 7]               0
            Conv2d-9            [-1, 256, 7, 7]         884,992
             ReLU-10            [-1, 256, 7, 7]               0
           Conv2d-11            [-1, 256, 7, 7]         590,080
             ReLU-12            [-1, 256, 7, 7]               0
        MaxPool2d-13            [-1, 256, 3, 3]               0
AdaptiveAvgPool2d-14            [-1, 256, 6, 6]               0
          Dropout-15                 [-1, 9216]               0
           Linear-16                 [-1, 4096]      37,752,832
             ReLU-17                 [-1, 4096]               0
          Dropout-18                 [-1, 4096]               0
           Linear-19                 [-1, 4096]      16,781,312
             ReLU-20                 [-1, 4096]               0
           Linear-21                 [-1, 1000]       4,097,000
================================================================
Total params: 61,100,840
Trainable params: 61,100,840
Non-trainable params: 0
----------------------------------------------------------------
Input size (MB): 0.19
Forward/backward pass size (MB): 2.77
Params size (MB): 233.08
Estimated Total Size (MB): 236.04
----------------------------------------------------------------
AlexNet(
…
